models/autoencoder.pth (torch, 4976 bytes, 8 tensors)

encoder.0.weight f4 [16, 4]
0	0xbdbf7c3e	-0.09349869
1	0xbd9866c7	-0.07441478
2	0xbeaaf534	-0.333902
3	0x3ead94f8	0.33902717
4	0xbec8b7a2	-0.392026
5	0x3ec3edec	0.38267457
6	0x3ebfbcb4	0.37448657
7	0xbeb3fda4	-0.3515445
8	0xbe368cd8	-0.17827165
9	0xbd666ef0	-0.056258142
10	0xbe99446d	-0.29935017
11	0x3ed664d6	0.41873807
12	0xbede8ade	-0.43465322
13	0x3d918be4	0.0710676
14	0xbd093ccb	-0.033505242
15	0xbedfd980	-0.43720627
16	0x3e9b162c	0.30290353
17	0xbde8261a	-0.11335392
18	0x3d812a21	0.063068636
19	0xbe145c5c	-0.14488357
20	0xbe8237f8	-0.25433326
21	0x3ef26576	0.47343034
22	0x3e2e55df	0.17024945
23	0x3ea3f6ab	0.3202413
24	0x3e8f784a	0.2802146
25	0x3ed951fa	0.42445356
26	0x3ee3c9ae	0.44489807
27	0xbedc9fd9	-0.43090704
28	0xbf0022ff	-0.500534
29	0xbecd6e8e	-0.4012341
30	0x3d3f9fea	0.046783365
31	0x3d028e5e	0.031874053
32	0x3e7689cb	0.24076001
33	0x3e9265f2	0.28593403
34	0xbea75b79	-0.32686976
35	0xbe9379f7	-0.2880399
36	0x3d93e1ba	0.07220788
37	0xbec20594	-0.3789488
38	0xbea6ea20	-0.32600498
39	0x3ea82f1d	0.32848445
40	0x3e4c4d6b	0.19951408
41	0xbd4dfde7	-0.05029097
42	0x3eefd59c	0.4684266
43	0xbe046e31	-0.1293266
44	0xbeeeb8f4	-0.46625483
45	0x3eb1e6a6	0.34746283
46	0x3eb085c5	0.34477058
47	0x3ef1be19	0.47215346
48	0x3eb56b5a	0.35433465
49	0xbecb3cf6	-0.39694947
50	0x3db513c7	0.08841663
51	0xbd44a829	-0.048011933
52	0x3eec30fd	0.46131125
53	0x3e19ed1b	0.15031855
54	0x3ef25d34	0.47336733
55	0x3d372999	0.044717405
56	0x3efe715d	0.49695864
57	0x3ee4396d	0.44575062
58	0xbde305f4	-0.1108512
59	0x3e340b3a	0.17582408
60	0xbeeed618	-0.46647716
61	0x3c5bab6e	0.013407571
62	0xbe375662	-0.17904046
63	0xbd6e6f38	-0.058211535

encoder.0.bias f4 [16]
0	0xbdae8b07	-0.08522611
1	0x3dd5674b	0.10420092
2	0x3d22d1c9	0.039750848
3	0xbc257218	-0.010098003
4	0x3ec48004	0.38378918
5	0x3de8ee5f	0.11373591
6	0xbe64b18b	-0.22333352
7	0xbd9fb195	-0.07797543
8	0xbecbe1c8	-0.39820695
9	0x3e8edb78	0.27901816
10	0x3f01a84f	0.50647444
11	0x3ea3bfc3	0.3198224
12	0xbef94d35	-0.48691717
13	0xbdb7b225	-0.08969525
14	0xbbe13284	-0.006872477
15	0x3e65dbda	0.22447148

encoder.2.weight f4 [8, 16]
0	0x3de9f80b	0.114242636
1	0xbe24eff5	-0.16107161
2	0x3d0c09cd	0.034189034
3	0x3cc2413f	0.023712752
4	0x3dd77700	0.10520744
5	0x3e5441d7	0.20728241
6	0xbddd4766	-0.10804634
7	0xbe0be724	-0.13662392
8	0x3e650b67	0.22367631
9	0x3e03a9bc	0.12857717
10	0x3e48d72f	0.19613336
11	0xbdaaa22e	-0.083317146
12	0xbdb565df	-0.08857321
13	0x3e49a905	0.19693382
14	0x3e857527	0.26065943
15	0xbe42c600	-0.19020844
16	0x3db495e4	0.08817652
17	0x3e484e93	0.19561224
18	0x3e6f50fd	0.23370738
19	0xbdfdc741	-0.1239152
20	0x3d584dce	0.052808575
21	0x3e0da3b0	0.13831973
22	0x3e358c6f	0.17729352
23	0x3c23abde	0.009989707
24	0xbe75bd5d	-0.23998018
25	0xbe54734d	-0.20747109
26	0x3defd770	0.11711013
27	0xbe5683b7	-0.20948683
28	0x3e0654c5	0.13118275
29	0xbd6f5409	-0.05842975
30	0x3e5987ab	0.2124316
31	0x3e72d0d7	0.23712479
32	0xbd01f6a0	-0.03172934
33	0xbe51e1cc	-0.20496291
34	0x3da8fdd7	0.08251541
35	0x3e24b4b5	0.1608456
36	0xbe833093	-0.25622997
37	0x3e181a19	0.14853705
38	0x3cad9452	0.021188889
39	0xbdc099fb	-0.094043694
40	0xbd6d3217	-0.057909098
41	0xbe3fad0c	-0.18718356
42	0xbe84f628	-0.25969052
43	0xbe102ef1	-0.14080407
44	0x3d1359e3	0.035974395
45	0xbdb5cfd3	-0.0887753
46	0xbcf99e6a	-0.030471046
47	0xbe05f4cb	-0.13081662
48	0xbe7aa339	-0.24476327
49	0x3d3ed02f	0.046585258
50	0x3e14b124	0.14520699
51	0xbe4e9bd9	-0.20176639
52	0x3e1481e1	0.1450267
53	0x3d4a3584	0.049367443
54	0x3e55caab	0.20878093
55	0xbe6ae8eb	-0.22940414
56	0x3e7b4145	0.24536617
57	0xbe046aee	-0.12931415
58	0xbe12b8a1	-0.14328243
59	0xbdb5e5f0	-0.08881748
60	0xbe55bcb1	-0.20872761
61	0xbda0f029	-0.07858307
62	0x3e59237f	0.21204947
63	0xbd9c1177	-0.07620519
64	0x3d193765	0.037406344
65	0xbc41d9e1	-0.011831732
66	0x3d77d1bb	0.06050275
67	0xbe5e48dd	-0.21707483
68	0xbe3dce2b	-0.18535678
69	0xbdc58929	-0.09645302
70	0xbd798f7d	-0.060927857
71	0x3c46c361	0.012131543
72	0xbd40259c	-0.046910867
73	0x3e659e47	0.2242366
74	0xbe86f981	-0.2636223
75	0x3e1bed4f	0.15227245
76	0x3dc0c957	0.094134025
77	0xbe4986e4	-0.19680363
78	0x3d7d28f1	0.061806623
79	0x3d986c0c	0.07442483
80	0xbe72cbab	-0.23710506
81	0xbdea3ff3	-0.114379786
82	0xbc8388ad	-0.016056383
83	0xbd83b718	-0.06431407
84	0xbe5f5a2c	-0.21811742
85	0x3cd59beb	0.026075324
86	0xbd562285	-0.052279014
87	0xbdbe5847	-0.09294181
88	0xbe211878	-0.1573199
89	0x3e71439c	0.23560947
90	0x3e114382	0.14185908
91	0xbe17f576	-0.1483973
92	0x3e123870	0.14279342
93	0x3cfb473c	0.030673616
94	0x3daab4e6	0.08335285
95	0x3e131da4	0.14366776
96	0xbe5a18da	-0.21298543
97	0xbc0237d6	-0.007947883
98	0x3e301610	0.17195916
99	0xbdef243c	-0.11676833
100	0xbd8b06e3	-0.06788423
101	0x3e1f8725	0.15578897
102	0x3dd849b2	0.10560931
103	0xbcef90bc	-0.02924382
104	0xbe209659	-0.15682353
105	0xbe1f77ed	-0.15573092
106	0x3cb21924	0.021740504
107	0xbe1cbc90	-0.15306306
108	0xbd341050	-0.04396087
109	0xbe8589b2	-0.26081616
110	0xbe2a227a	-0.16614714
111	0x3e2c204e	0.16809198
112	0x3c6e2297	0.014534614
113	0x3c9e51c9	0.019326108
114	0x3dc02d58	0.09383649
115	0x3e512db7	0.20427595
116	0x3c7c8293	0.015411991
117	0x3e189d48	0.14903748
118	0xbd86a4f9	-0.06574435
119	0xbe24d4b9	-0.16096772
120	0x3e84bf7f	0.2592735
121	0xbe7573e4	-0.2396999
122	0x3cc02d4e	0.023459103
123	0x3e4dc07e	0.20092961
124	0x3dd782c7	0.10522991
125	0xbd058cdf	-0.03260505
126	0x3e17d679	0.14827909
127	0x3de8c0a9	0.11364872

encoder.2.bias f4 [8]
0	0x3e1895d7	0.1490091
1	0xbe4b895b	-0.19876616
2	0xbdec4be1	-0.1153791
3	0xbcf4a937	-0.029865844
4	0x3e85581a	0.2604378
5	0x3e460aed	0.19340105
6	0xbc716a5d	-0.014734832
7	0xbdc51df1	-0.096248515

decoder.0.weight f4 [16, 8]
0	0xbe9d1b40	-0.30684853
1	0x3e98417e	0.29737467
2	0xbde8a8e1	-0.11360336
3	0xbe79d422	-0.24397328
4	0x3d87dedb	0.06634303
5	0x3e88b105	0.26697555
6	0x3e956a69	0.29182747
7	0xbe7a576a	-0.24447408
8	0x3eb099b1	0.34492257
9	0x3e5575bf	0.20845698
10	0x3e6f61e4	0.23377186
11	0xbe7851e9	-0.24249996
12	0xbe3e6045	-0.18591411
13	0x3d4cd4a3	0.050007474
14	0xbe0aa06b	-0.13537757
15	0x3e843892	0.2582441
16	0xbea0f779	-0.31438807
17	0x3e0df8e6	0.13864478
18	0xbde7333c	-0.11289069
19	0x3e867ab0	0.26265478
20	0xbe8c2d5d	-0.2737836
21	0xbe8dff1d	-0.27733698
22	0x3e9f60a7	0.31128427
23	0xbea25dea	-0.31712276
24	0x3e6cde28	0.23131621
25	0xbe88bb2e	-0.26705307
26	0x3eba3388	0.3636744
27	0x3e3ff115	0.18744309
28	0x3e9a9bfa	0.30197126
29	0x3e8c69c3	0.2742444
30	0xbb6c8dfa	-0.0036095367
31	0x3e9a56a5	0.3014423
32	0xbe4dd4be	-0.20100686
33	0x3d845436	0.064613745
34	0xbe45919f	-0.19293831
35	0xbe933ff0	-0.28759718
36	0xbe5b3977	-0.2140864
37	0xbc9f493f	-0.019444106
38	0xbec257b4	-0.37957537
39	0xbdff7bfc	-0.1247482
40	0xbe02d8f5	-0.12778075
41	0xbc0ae101	-0.008476497
42	0xbe675b44	-0.22593409
43	0xbd0895c2	-0.033345945
44	0xbeb41d60	-0.3517866
45	0x3dbabb8e	0.091178045
46	0x3d817346	0.06320815
47	0x3e9bafef	0.30407664
48	0x3ea719ac	0.32636774
49	0xbb533bbf	-0.0032231656
50	0xbd3cf150	-0.04612857
51	0x3e739f9c	0.23791355
52	0xbe9205b8	-0.28519988
53	0xbd8832ba	-0.066503
54	0x3d0b783e	0.03405022
55	0xbd84633c	-0.0646424
56	0x3e9d58fc	0.30731952
57	0xbe24f756	-0.16109976
58	0x3e458c5d	0.19291826
59	0x3db3f470	0.08786857
60	0xbe8beac6	-0.27327555
61	0x3e986b3a	0.29769307
62	0x3e309599	0.17244567
63	0x3ea3b2c5	0.31972328
64	0x3d6e0ca3	0.05811752
65	0xbe11443a	-0.14186183
66	0xbe67ec84	-0.22648817
67	0x3e981729	0.2970517
68	0xbe84eaf6	-0.2596051
69	0xbe70f59c	-0.23531193
70	0xbe8675df	-0.26261804
71	0x3e17f16e	0.14838192
72	0xbd4d62d0	-0.050143063
73	0x3e191945	0.14951046
74	0xbdd0e649	-0.102001734
75	0x3e3df399	0.18549956
76	0x3eb2cd56	0.34922284
77	0x3dbc24b1	0.09186686
78	0xbe40945b	-0.18806593
79	0x3d149be0	0.036281466
80	0x3e8fc439	0.28079394
81	0xbde5e83d	-0.112259366
82	0x3e8271d2	0.25477463
83	0x3c84e5df	0.016222892
84	0x3e3ad39e	0.18244788
85	0xbe01b691	-0.126673
86	0x3d2fdabb	0.042933207
87	0x3e632e2c	0.22185582
88	0xbe952325	-0.29128376
89	0x3de874db	0.113504134
90	0xbe5a76bb	-0.21334355
91	0xbe146a75	-0.14493735
92	0xbdbe312e	-0.09286724
93	0x3d67f2aa	0.056627907
94	0x3dc23b54	0.09483972
95	0x3e87fac4	0.26558506
96	0xbc9e739a	-0.019342232
97	0x3dbad938	0.091234624
98	0x3b012416	0.0019705347
99	0xbe6c9561	-0.23103859
100	0xbe2b860a	-0.1675035
101	0x3d8cd587	0.068766646
102	0xbe8d4809	-0.2759402
103	0xbe244f83	-0.16045956
104	0xbea94ce3	-0.33066472
105	0xbe3852d1	-0.18000342
106	0x3e23e726	0.16006145
107	0x3e3366ce	0.17519686
108	0x3e2f05ba	0.17092028
109	0xbe974894	-0.2954756
110	0x3e116e32	0.14202192
111	0x3c031180	0.007999778
112	0x3e7e2042	0.24816993
113	0xbdc5d743	-0.096601985
114	0xbe202e26	-0.15642604
115	0x3da92980	0.082598686
116	0xbe12987f	-0.14315985
117	0xbc529985	-0.012853985
118	0xbe97b655	-0.29631296
119	0x3e945ae1	0.28975585
120	0xbe4ad480	-0.19807625
121	0xbe664df2	-0.22490671
122	0xbe08dadb	-0.13364737
123	0xbc32c7ab	-0.010911862
124	0xbe7817a5	-0.2422777
125	0x3e86420c	0.26222265
126	0x3e3b3b0c	0.18284243
127	0xbe195450	-0.14973569

decoder.0.bias f4 [16]
0	0x3e7b1862	0.2452102
1	0x3dd3ce58	0.10342091
2	0x3e36ac69	0.17839207
3	0x3e64c437	0.22340475
4	0xbe834463	-0.25638112
5	0xbce56744	-0.028003342
6	0xbdcfecc8	-0.10152584
7	0x3e728ee0	0.23687315
8	0x3e1a6051	0.15075804
9	0x3e0b5b64	0.13609082
10	0xbe8a7910	-0.27045488
11	0xbe50417f	-0.20337485
12	0xbe837551	-0.25675443
13	0xbc971aa0	-0.018445313
14	0xbd921a4b	-0.07133921
15	0xbda97949	-0.082750864

decoder.2.weight f4 [4, 16]
0	0x3dd9aa7d	0.10628221
1	0xbdafa0bf	-0.08575582
2	0x3da71747	0.08158737
3	0x3d76a756	0.060218178
4	0x3d22efb9	0.0397794
5	0x3e5b2791	0.21401812
6	0x3c163d9f	0.009169965
7	0xbdcc5aaa	-0.0997823
8	0xbde31448	-0.11087853
9	0x3d80f7e4	0.062972814
10	0xbcc7a49c	-0.024370484
11	0xbe217e3c	-0.15770811
12	0x3e19b508	0.15010464
13	0x3e6fdb92	0.23423603
14	0x3e0fc7f0	0.14041114
15	0x3e3775e5	0.17916067
16	0xbe8b7e3f	-0.27244756
17	0x3e63d20e	0.22248098
18	0x3e17523e	0.14777467
19	0x3da445b7	0.080211096
20	0x3d45dc30	0.04830569
21	0xbd94dadf	-0.07268309
22	0xbde68e24	-0.1125758
23	0x3ded619b	0.115908824
24	0x3e84c95c	0.25934875
25	0xbde65ce3	-0.112481855
26	0x3e5f3e3e	0.21801087
27	0xbe15da7d	-0.14634128
28	0xbe2560a8	-0.16150153
29	0xbe6192e4	-0.2202869
30	0x3e57ac70	0.21061873
31	0x3e444e8f	0.19170593
32	0x3ded5e66	0.11590271
33	0x3e48244d	0.19545098
34	0xbd6d2795	-0.057899076
35	0xbe852afc	-0.26009357
36	0x3e5fa9cf	0.2184212
37	0x3d51a16e	0.051179342
38	0x3e7b4720	0.24538851
39	0x3e5c61e6	0.2152172
40	0x3e04b448	0.12959397
41	0x3e2077de	0.15670726
42	0x3ddbaac6	0.10725932
43	0x3e713d3c	0.23558515
44	0x3e819d5f	0.25315377
45	0xbe459994	-0.19296867
46	0x3d879cb0	0.06621683
47	0xbd9577b5	-0.07298223
48	0x3d589b4a	0.05288247
49	0x3dd2ff59	0.1030261
50	0x3df9d101	0.121980675
51	0xbc3a8818	-0.011384986
52	0x3d56aa6f	0.052408632
53	0x3e57dd04	0.21080405
54	0x3e2260f2	0.15857294
55	0xbdec8882	-0.11549474
56	0xbe1e0ee2	-0.15435365
57	0x3e425fda	0.18981877
58	0x3e5788ab	0.21048228
59	0x3de67b6f	0.11254012
60	0xbcd597ca	-0.026073355
61	0x3d3256a8	0.043539673
62	0xbca18793	-0.019717967
63	0x3e1910e2	0.14947847

decoder.2.bias f4 [4]
0	0xbe61bd04	-0.2204476
1	0xbc59860d	-0.013276589
2	0xbe4e4be7	-0.20146142
3	0xbe2aa57a	-0.16664687
